model_state.pt (torch, 6615 bytes, 5 tensors)

layers.0.weight f4 [50, 11]
0	0xbdc8f585	-0.09812454
1	0x3bf8dbe2	0.0075945714
2	0xbdb02868	-0.08601457
3	0x3d2ccc16	0.04218682
4	0xbe89bfba	-0.26904088
5	0x3de7def9	0.113218255
6	0x3db6b899	0.08921928
7	0x3f1acbab	0.6046702
8	0xbe6905a0	-0.22756052
9	0x3ea49bfd	0.3215026
10	0xbe41a199	-0.18909301
11	0x3eb954eb	0.361976
12	0xbd97d218	-0.07413119
13	0x3e15522a	0.14582124
14	0x3f213742	0.6297494
15	0xbec56731	-0.3855529
16	0x3e8214ea	0.2540658
17	0xbd992d63	-0.0747936
18	0xbe557f59	-0.2084936
19	0xbe5519e1	-0.20810653
20	0x3eef8102	0.46778113
21	0x3ed0fadd	0.40816393
22	0x3c8e7d0a	0.017393608
23	0x3e529173	0.20563297
24	0x3e84d3f5	0.2594296
25	0x3ef20bc6	0.47274607
26	0x3da9af8e	0.082854375
27	0xbf09a6bc	-0.5377004
28	0x3dbcc8a3	0.09217956
29	0x3e6c479a	0.23074189
30	0x3eb2974b	0.34881052
31	0x3e623f09	0.22094359
32	0x3f3356eb	0.700545
33	0x3eb33dbb	0.35008034
34	0xbefc93c7	-0.49331495
35	0xbdeb18fd	-0.114793755
36	0xbf15250d	-0.5825966
37	0x3e74bcb2	0.23900107
38	0xbe4e01e4	-0.20117909
39	0xbdc191b2	-0.09451617
40	0x3edcffbc	0.4316386
41	0x3d774d77	0.06037661
42	0xbf017750	-0.5057268
43	0xbe3b1902	-0.18271258
44	0x3e2eab87	0.1705762
45	0x3ef04dc4	0.4693433
46	0xbd90a1a2	-0.07062079
47	0x3e6793cc	0.22614974
48	0x3c1ca2b6	0.009560278
49	0xbe9a3b06	-0.30123156
50	0x3e7c70cc	0.24652404
51	0x3ec8ba03	0.39204416
52	0xbce6de67	-0.028182222
53	0xbf1996a2	-0.5999547
54	0xbe9a7644	-0.30168355
55	0xbd732a06	-0.05936625
56	0x3d498f85	0.049209137
57	0xbd0a7101	-0.033799175
58	0xbda5a4f6	-0.080881044
59	0x3d989ccc	0.07451782
60	0x3e31a4f1	0.17348076
61	0x3e804e65	0.2505981
62	0x3e7f56f1	0.2493551
63	0x3e94d860	0.2907133
64	0x3f1c0085	0.6093829
65	0xbda406e7	-0.08009129
66	0x3dd04f41	0.101713665
67	0xbe3bcfca	-0.18340984
68	0x3df20239	0.1181683
69	0xbe5fc8df	-0.2185397
70	0x3e45a21e	0.19300124
71	0xbdb5e462	-0.08881451
72	0x3f07baed	0.530196
73	0x3eb70255	0.35743967
74	0xbe284eca	-0.16436306
75	0xbe0f9596	-0.14021906
76	0x3e22feb9	0.15917481
77	0xbe1a14d8	-0.15047014
78	0xbee70f45	-0.45128837
79	0x3d4aa6e6	0.049475573
80	0x3d86aa2e	0.06575428
81	0xbeb3e56c	-0.35135972
82	0xbd8c71d7	-0.06857651
83	0xbeae86a0	-0.34087086
84	0x3e717eef	0.23583578
85	0x3ed0da76	0.40791672
86	0x3d550b18	0.052012533
87	0x3e35e151	0.17761733
88	0xbe3ef8db	-0.18649618
89	0xbee83abf	-0.4535732
90	0xbeec4d10	-0.46152544
91	0xbd3fbb4c	-0.04680948
92	0xbeb76e6c	-0.35826433
93	0x3dade72e	0.0849136
94	0xbdfba672	-0.12287606
95	0x3ef8c6c0	0.48589134
96	0x3c2f9411	0.010716454
97	0xbc8f03ad	-0.017457807
98	0x3e50099b	0.20316164
99	0xbee82a5c	-0.45344818
100	0xbe66c4f9	-0.22536077
101	0x3ed79831	0.421083
102	0x3e3afed3	0.1826127
103	0xbdc91524	-0.098184854
104	0xbcd4b28d	-0.025964046
105	0xbe1ff3fd	-0.15620418
106	0x3f246f31	0.64232165
107	0xbe0bc0ba	-0.13647738
108	0x3d8f7f70	0.07006729
109	0xbe367680	-0.17818642
110	0x3e39d9e7	0.1814953
111	0xbecaf896	-0.3964278
112	0xbe836bb2	-0.25668103
113	0x3f144158	0.57912207
114	0x3ee73252	0.4515558
115	0x3cbc56f5	0.022990683
116	0xbe02bb8e	-0.12766859
117	0x3e78ffce	0.24316332
118	0xbe97887b	-0.29596314
119	0xbe974685	-0.2954599
120	0x3e5e956c	0.21736687
121	0x3c03394f	0.008009269
122	0x3e64ad74	0.22331792
123	0xbd4c4b4b	-0.049876492
124	0x3e35d14d	0.17755623
125	0xbebe21b3	-0.37135085
126	0x3e78f22a	0.24311128
127	0xbe5dad65	-0.21648176
128	0x3dd8f65c	0.10593864
129	0xbdb48ef1	-0.088163264
130	0x3ec83aa4	0.3910724
131	0xbe55cf40	-0.20879841
132	0x3dfea911	0.124345906
133	0x3ee7fd29	0.45310333
134	0xbd9abcee	-0.07555567
135	0x3d2ffa2f	0.042963203
136	0xbe9a2be4	-0.3011161
137	0x3ddcf39b	0.107886516
138	0xbd915b8e	-0.07097541
139	0xbea9f69b	-0.33195958
140	0x3e03cc40	0.12870884
141	0xbd946453	-0.07245698
142	0xbe0c5f61	-0.13708259
143	0xbd9f3d83	-0.07775404
144	0xbc948d40	-0.01813376
145	0xbdc38335	-0.0954651
146	0xbcfbd2f3	-0.030740237
147	0xbe8aae1f	-0.2708597
148	0x3e2472e1	0.16059448
149	0xbeb72bc2	-0.35775572
150	0x3e490085	0.19629104
151	0x3ea8c1a1	0.32960227
152	0x3f080380	0.5313034
153	0xbe83a225	-0.25709644
154	0xbec7c003	-0.3901368
155	0xbf043b58	-0.5165305
156	0x3d246a22	0.04014028
157	0x3d38bbbc	0.045100912
158	0xbe862af7	-0.26204655
159	0xbedaa928	-0.4270718
160	0x3d9c099e	0.07619022
161	0x3df7c174	0.12097445
162	0xbea6418f	-0.32471892
163	0x3eb58b5f	0.35457894
164	0xbdf9f02b	-0.122040115
165	0xbe182808	-0.1485902
166	0x3e66f4e6	0.22554359
167	0x3ed353a7	0.4127476
168	0xbecccaca	-0.39998466
169	0x3d60c73b	0.0548775
170	0xbe994b36	-0.29940194
171	0x3f1cce56	0.61252344
172	0x3ee7d2c8	0.45278
173	0x3e41a8b0	0.18912005
174	0xbc27b712	-0.010236518
175	0xbe5ab12c	-0.21356648
176	0x3e541c1d	0.2071385
177	0xbed55c4b	-0.41671976
178	0x3e534cfd	0.20634837
179	0x3ec345b0	0.38139105
180	0x3e25c7a2	0.16189435
181	0xbf1cd855	-0.61267596
182	0xbec54aae	-0.3853354
183	0x3e0f7201	0.14008333
184	0x3f089703	0.53355426
185	0x3e0758df	0.13217495
186	0x3e904180	0.28174973
187	0xbe0260de	-0.12732264
188	0xbed7c3a7	-0.42141458
189	0x3eaec535	0.34134832
190	0xbe3aa640	-0.18227482
191	0xbe979245	-0.29603782
192	0xbd723294	-0.059130266
193	0x3e7b424f	0.24537013
194	0x3e6c2c5e	0.230638
195	0x3e9445d5	0.28959528
196	0x3ee915fd	0.45524588
197	0x3e0c6b47	0.13712798
198	0x3d04beac	0.0324084
199	0xbd9a1060	-0.075226545
200	0x3e0c8257	0.13721596
201	0x3da9f675	0.08298961
202	0x3ed03a92	0.40669686
203	0x3db21414	0.08695236
204	0x3ea45077	0.3209264
205	0x3eb3a692	0.3508802
206	0xbe8d0f41	-0.275507
207	0x3e653b36	0.22385868
208	0x3e2275a0	0.15865183
209	0x3e6e6871	0.23282029
210	0xbe80e042	-0.25171095
211	0x3e5893c4	0.21150118
212	0x3e95b98a	0.29243118
213	0xbe3a07d5	-0.1816705
214	0x3ed3c589	0.41361645
215	0x3e633cbd	0.22191139
216	0xbd0b90b9	-0.034073565
217	0xbe53600e	-0.2064211
218	0x3e836777	0.25664875
219	0xbba2888e	-0.0049601262
220	0x3efc3c01	0.4926453
221	0x3e48dfbb	0.19616596
222	0x3c9333a4	0.01796896
223	0xbd0c5f76	-0.034270726
224	0xbd59bfea	-0.05316154
225	0x3e1abad5	0.15110333
226	0xbee97f19	-0.4560478
227	0xbf0cb0f6	-0.5495752
228	0xbdec2e35	-0.11532251
229	0x3e22a5a6	0.15883502
230	0xbd01e137	-0.031708922
231	0xbd8c5588	-0.06852251
232	0x3e8fcde4	0.2808677
233	0xbcc02e35	-0.023459533
234	0x3e2cdfd8	0.16882265
235	0x3d3b5c2b	0.045742195
236	0x3f42e2ec	0.76127505
237	0x3eafe1e4	0.34352028
238	0x3ec77eaa	0.38963825
239	0x3e3d345f	0.18477009
240	0x3d82ba0a	0.063831404
241	0x3dd78e76	0.10525219
242	0x3d8c31a1	0.068454035
243	0xbe04d257	-0.12970863
244	0x3e987f70	0.29784727
245	0x3e2b5860	0.16732931
246	0xbe43e2eb	-0.19129531
247	0xbf4412a9	-0.76590973
248	0xbecd626e	-0.40114158
249	0xbdd3f217	-0.10348909
250	0x3e8214e3	0.2540656
251	0xbea4427c	-0.32081974
252	0x3dc7443f	0.09729814
253	0xbe0a9bfd	-0.13536067
254	0x3ecfb391	0.40566686
255	0x3e9991eb	0.2999414

layers.0.bias f4 [50]
0	0xbe6a82d0	-0.22901464
1	0xbe65d6b0	-0.22445178
2	0xbb351408	-0.0027630348
3	0xbe3060f9	-0.17224492
4	0xbe4d7c00	-0.20066833
5	0x3f18330d	0.594529
6	0x3e3597f8	0.17733753
7	0x3eea3e88	0.45750833
8	0xbd9392d8	-0.072057426
9	0xbcb6d39e	-0.022317704
10	0x3eb7337f	0.35781476
11	0xbd3d580e	-0.046226554
12	0x3e4c5ab0	0.1995647
13	0xbd54f7b4	-0.05199404
14	0x3d86449e	0.065560564
15	0xbdb00478	-0.08594602
16	0x3dd7b1f6	0.1053199
17	0xbe1ffd45	-0.15623958
18	0xbecc1bb3	-0.39864883
19	0x3e8cdc60	0.27511883
20	0xbe780242	-0.24219611
21	0xbe040603	-0.12892918
22	0x3d9916d8	0.0747506
23	0x3d5d5fe0	0.05404651
24	0x3ea249b5	0.3169686
25	0x3e4c06a9	0.19924416
26	0xbe18a96f	-0.14908384
27	0x3df8e27b	0.12152573
28	0xbea81191	-0.32825902
29	0x3e34a445	0.17640789
30	0x3cf8ffba	0.030395377
31	0xbf5e87ff	-0.86926264
32	0xbebf97a5	-0.37420383
33	0x3f0f17ed	0.5589588
34	0x3e4345c0	0.19069576
35	0x3dac56c1	0.084149845
36	0x3e283238	0.16425407
37	0xbe0b2907	-0.1358987
38	0x3ec921a2	0.39283472
39	0x3e0fbe51	0.14037444
40	0x3d735a08	0.059412032
41	0x3ea66f57	0.3250682
42	0xbdc5782a	-0.0964206
43	0xbdf16a8e	-0.11787902
44	0x3d169477	0.03676268
45	0xbd2d1942	-0.042260416
46	0x3e4d1745	0.20028408
47	0xbdcf54de	-0.10123609
48	0x3ddf3089	0.10897929
49	0x3d85f2ca	0.06540449

layers.2.weight f4 [10, 50]
0	0xbe9ebd89	-0.3100398
1	0x3e0753c0	0.13215542
2	0xbe951909	-0.29120663
3	0xbe834ef9	-0.2564619
4	0xbe88d97d	-0.2672843
5	0x3e507d74	0.20360357
6	0xbe993ce3	-0.29929265
7	0x3cb4eef5	0.0220866
8	0xbe8977b0	-0.26849127
9	0xbe980241	-0.2968922
10	0xbec006f7	-0.37505314
11	0x3e2db975	0.16965277
12	0x3e785ca4	0.2425409
13	0x3e06b1b4	0.13153726
14	0xbbfa5e3c	-0.007640628
15	0xbf04cce2	-0.51875126
16	0x3e94db0e	0.29073375
17	0x3ebfc40b	0.37454256
18	0x3ef165e7	0.47148058
19	0x3bc3b3fb	0.005972383
20	0xbea9e113	-0.3317953
21	0xbeeb0d3a	-0.4590853
22	0xbe4b049d	-0.19825979
23	0x3e2dd60f	0.16976188
24	0x3eac2848	0.33624482
25	0xbe966abd	-0.2937831
26	0x3e37b9ac	0.17941922
27	0xbe8e39fa	-0.27778608
28	0xbd1fd032	-0.03901691
29	0xbd2da209	-0.042390857
30	0xbe57e313	-0.21082716
31	0x3f179394	0.5920956
32	0xbed084b7	-0.40726253
33	0xbe42671c	-0.18984646
34	0x3e8b833f	0.2724857
35	0x3ee3f691	0.44524053
36	0x3dc7912a	0.09744485
37	0x3d0131c0	0.031541586
38	0x3eaaf133	0.33387145
39	0x3f181b4b	0.59416646
40	0x3ee03fb3	0.437986
41	0x3d0da79b	0.03458367
42	0xbe8dea76	-0.27717942
43	0x3e8364b7	0.25662777
44	0x3e975f3d	0.2956485
45	0x3ed14974	0.40876353
46	0x3e6a5630	0.2288444
47	0x3eb7d0a0	0.35901356
48	0xbe5c266a	-0.21499029
49	0x3d3f26e4	0.04666795
50	0xbec41d71	-0.38303712
51	0x3e3cd569	0.18440785
52	0xbd081353	-0.033221554
53	0xbe3f38cd	-0.18674012
54	0xbec0dc8c	-0.37668264
55	0x3e4d1b4a	0.20029941
56	0xbea941a2	-0.33057886
57	0x3e6e47c2	0.23269561
58	0xbeacfef0	-0.33788252
59	0xbe28c470	-0.16481185
60	0xbe3604a7	-0.17775212
61	0x3e58d61a	0.21175423
62	0x3dc2b995	0.09508053
63	0x3e91248a	0.2834819
64	0x3e7a33f2	0.24433878
65	0xbec8398f	-0.39106414
66	0x3e5c53fe	0.21516415
67	0x3e9a7d58	0.30173755
68	0xbe827f5f	-0.254878
69	0x3e9dc557	0.3081462
70	0xbea27773	-0.31731758
71	0xbd2bf35a	-0.041980125
72	0x3eade853	0.33966312
73	0x3ded034f	0.11572897
74	0x3e538b14	0.20658523
75	0xbf12aa31	-0.5729094
76	0x3e8ea98a	0.27863723
77	0xbd7d3144	-0.06181456
78	0xbea88250	-0.3291192
79	0xbf18fc05	-0.5975955
80	0xbe6d9247	-0.23200332
81	0xbdc0106c	-0.09378132
82	0xbe9e11bd	-0.30872908
83	0xbe3cf847	-0.18454085
84	0x3e51a2ad	0.20472212
85	0x3f098815	0.5372327
86	0x3ecb7335	0.39736333
87	0x3e81f731	0.25383905
88	0x3e80b9a3	0.2514163
89	0x3ec65231	0.38734582
90	0x3eb32fdd	0.34997454
91	0x3d46cfca	0.048538007
92	0xbe853efe	-0.26024622
93	0x3de64c49	0.11245019
94	0x3e752369	0.23939289
95	0x3f07658f	0.5288934
96	0x3d305ea9	0.043059025
97	0x3e2d1ccb	0.16905515
98	0xbe198db2	-0.14995459
99	0x3e55a11b	0.20862238
100	0x3ee5913b	0.44837365
101	0xbeadaa2d	-0.33918896
102	0x3f0bcf07	0.54612774
103	0x3e94150f	0.28922316
104	0x3e837b93	0.25680217
105	0xbe1018c4	-0.14071947
106	0x3dd41550	0.103556275
107	0xbdb6a906	-0.089189574
108	0x3e93e8a1	0.2888842
109	0x3ec70060	0.38867474
110	0x3ea17d56	0.31540936
111	0xbc86004b	-0.016357562
112	0xbe16237e	-0.14661977
113	0xbda32bf2	-0.07967366
114	0xbe797542	-0.24361137
115	0x3f0d2a41	0.551426
116	0xbe4c4165	-0.19946821
117	0xbe78ac44	-0.24284464
118	0xbeace7e2	-0.33770663
119	0x3ea53a4b	0.32271037
120	0x3ea5548d	0.3229107
121	0x3f05cde0	0.52267265
122	0x3f1ebad1	0.6200381
123	0xbd3ffbbb	-0.04687093
124	0xbec7f01c	-0.39050376
125	0x3ddd301e	0.10800193
126	0x3e7f2432	0.24916151
127	0x3ef31568	0.4747727
128	0x3e450d53	0.19243364
129	0x3ee44422	0.4458323
130	0x3eaf1521	0.34195808
131	0xbf678e90	-0.9045191
132	0x3e6f2236	0.23352894
133	0x3ec730b3	0.38904342
134	0xbd05017b	-0.032472115
135	0x3d456f4c	0.048201844
136	0x3e43bd7c	0.19115251
137	0x3f14e24a	0.5815779
138	0xbe7d80e3	-0.24756198
139	0xbebde140	-0.37085915
140	0xbdf2109c	-0.11819574
141	0xbe155588	-0.14583409
142	0x3e9f80f5	0.31153074
143	0xbe03579c	-0.12826389
144	0xbe1dd71e	-0.15414092
145	0x3daa8a3b	0.083271466
146	0xbdc08280	-0.09399891
147	0xbea8d548	-0.3297522
148	0x3de00264	0.10937956
149	0xbe14bdca	-0.14525524
150	0xbe63cf73	-0.22247104
151	0x3e10cbe5	0.1414028
152	0x3d8413e6	0.06449108
153	0xbe41542d	-0.18879767
154	0xbe7accb2	-0.24492148
155	0x3dbb4ed1	0.091458924
156	0xbdf95366	-0.1217411
157	0x3da9d899	0.08293266
158	0xbe08fa45	-0.1337672
159	0xbe32f55f	-0.17476414
160	0xbdb8bbb4	-0.090201765
161	0x3e2a2b72	0.16618136
162	0x3df5c02f	0.11999547
163	0x3e2de9a7	0.16983663
164	0x3de013d6	0.109412834
165	0xbe99654a	-0.2996009
166	0x3e8b673a	0.27227193
167	0x3d820e85	0.06350426
168	0x3d323138	0.04350397
169	0x3e393ff8	0.18090808
170	0xbdc888b5	-0.097917
171	0xbe3409cb	-0.1758186
172	0xbb5e0dcd	-0.0033882738
173	0x3e10b60f	0.1413195
174	0x3e19d0a8	0.15021002
175	0x3d59a68c	0.053137347
176	0x3bb65bb7	0.0055651325
177	0x3c48d3c6	0.012257522
178	0x3a50420c	0.0007944412
179	0x3e1e4022	0.15454152
180	0xbe23070f	-0.15920661
181	0x3f1b9879	0.6077953
182	0xbebf886c	-0.3740877
183	0xbe8dbc32	-0.27682644
184	0x3de79a93	0.113087796
185	0x3e662be5	0.22477682
186	0x3e503822	0.20333913
187	0x3e3982cd	0.18116303
188	0xbb9d0594	-0.0047919247
189	0x3d85b3eb	0.06528457
190	0x3ecd8c61	0.40146163
191	0x3d8585ef	0.065196864
192	0xbe9e6021	-0.30932716
193	0x3e014e21	0.1262746
194	0x3dd9e756	0.10639827
195	0x3e1dc25c	0.15406173
196	0x3d209766	0.039206885
197	0x3e156e8e	0.14592955
198	0xbe888cfb	-0.2667006
199	0x3d3768f0	0.04477781
200	0xbd9d4ce0	-0.07680678
201	0x3e0ae432	0.13563612
202	0x3e069a93	0.13144903
203	0xbe3c6bcb	-0.18400495
204	0xbdd683a3	-0.104743265
205	0x3ea8d365	0.3297378
206	0xbe381f48	-0.17980683
207	0x3d648131	0.05578727
208	0xbe9bd2d1	-0.30434278
209	0xbeca3ad7	-0.39498016
210	0xbdbe2ef8	-0.09286302
211	0x3e75baaa	0.23996988
212	0x3db96e9e	0.09054302
213	0x3d80314b	0.06259402
214	0x3e9077be	0.28216356
215	0xbeb22bfb	-0.3479918
216	0x3e644791	0.22292925
217	0x3e90fe26	0.283189
218	0xbdb42bb4	-0.08797398
219	0x3e87e6a1	0.26543143
220	0xbe854033	-0.26025543
221	0xbd8c6227	-0.068546586
222	0x3ea89731	0.3292785
223	0xba2e6da3	-0.00066539104
224	0x3e325404	0.17414862
225	0xbf0ba87e	-0.54553974
226	0x3e58eb83	0.2118359
227	0xbdee36dc	-0.11631557
228	0xbed3ec82	-0.4139138
229	0xbf13822a	-0.5762049
230	0xbea1789c	-0.3153733
231	0xbd41643f	-0.047214743
232	0xbebb1bf3	-0.3654476
233	0xbe9b7eb3	-0.303701
234	0x3e9630dd	0.29334155
235	0x3f0b0556	0.54305017
236	0x3e19e4ac	0.15028638
237	0x3e81b434	0.25332797
238	0x3e12f1d6	0.14350066
239	0x3ed6da12	0.4196325
240	0x3eb81376	0.35952348
241	0x3dafd8bd	0.085862614
242	0xbde7f749	-0.11326463
243	0x3e6656a6	0.22493991
244	0x3e4e07a1	0.20120098
245	0x3eaa639f	0.3327913
246	0x3e53d4de	0.20686671
247	0x3e07e35e	0.13270327
248	0xbe7b5a7f	-0.2454624
249	0x3e2eb120	0.17059755
250	0xbea1850b	-0.31546816
251	0x3d301813	0.04299171
252	0xbe08d702	-0.13363269
253	0xbd9cfc6d	-0.07665334
254	0xbe1ed22a	-0.15509859
255	0x3dfa52e4	0.122228414

layers.2.bias f4 [10]
0	0x3e0535d3	0.13008814
1	0x3e069ee1	0.13146545
2	0x3e0a9a56	0.13535437
3	0x3e5c74bd	0.21528907
4	0x3ce6128a	0.028085012
5	0x3d613816	0.05498513
6	0x3dd11f62	0.10211064
7	0x3dfed0ad	0.124421455
8	0x3dbaed7b	0.09127327
9	0x3dbc4cdb	0.091943465

layers.4.weight f4 [1, 10]
0	0xbe9cbe75	-0.30614057
1	0xbeed1ba3	-0.46310148
2	0x3f2ad81e	0.6673602
3	0xbec2f23f	-0.38075444
4	0xbf116ddb	-0.5680825
5	0xbef4ec8e	-0.47836727
6	0xbf13d86a	-0.57752097
7	0x3f1f8af5	0.62321407
8	0x3f1ef66b	0.62094754
9	0xbee85a5c	-0.4538144
